tests/test_resources/models/simple_mnist_convnet_non_quantized.tflite (tflite, 141484 bytes, 5 tensors)

sequential/dense/MatMul f4 [10, 1600]
00000000: fc0d 3f3c 22d6 8a3c 481d a9bb 1314 0d3d
00000010: 3aec 92bc efdd 053d 8002 a43a 8ba5 733d
00000020: e0b3 93ba 73f4 46bd f171 073d 0ae9 ff3c
00000030: 6e20 04bd 066e bbbc 5c01 4cbd a077 91bc
00000040: 988c 873b f6a1 92bc d1b4 563d d689 38bd
00000050: 6d63 5a3d 6ecc ce3c 3021 82bc 3c28 473c
00000060: e820 f5bb c201 cd3c f1c3 4fbd b0be 88bc
00000070: 6c3a 653c 202a 3bbb 8097 08bd 1cb0 5c3c
00000080: 24b3 50bd 2413 f3bc a2c6 bbbc 0086 3dbd
00000090: 44c8 543c 408b ae3a 2f6c 643d 1e09 b9bc
000000a0: c90c 54bd 2d05 443d fd45 f7bc 54e3 b8bc
000000b0: 3ae5 fdbc 7ca1 25bd 9f30 2b3d c450 6d3c
000000c0: f200 fc3c 5b26 673d f8fb f5bc 4a43 c4bc
000000d0: 1063 50bd 7f32 313d 451f 50bd 1c94 313c
000000e0: ead2 ed3c a4cc 29bd e40b 7b3c c593 303d
000000f0: 8011 e1bc f893 36bc 5ca1 06bc 7cb4 5c3c
00000100: d389 2f3d f899 09bd 74bc 5b3c 3752 4b3d
00000110: 4eac 9fbc 4a5e e8bc 7c8d 12bd 984e b4bc
00000120: d3bd 1c3d fc78 42bc 305e bfbc b3e9 503d
00000130: a0c5 c73a 8ece 3fbd 2750 4c3d 701a b0bb
00000140: 8478 30bd be65 95bc f989 2f3d 2704 773d
00000150: 20e6 debc f01f 1a3b a577 133d 448d 413c
00000160: 7ca4 1fbc 0f76 3b3d 6875 06bc 2bdb 783d
00000170: 56b8 983c c0f4 25bd 20b3 86bc c1bd 3a3d
00000180: 8ca8 0e3c 64ba 4fbd 44a7 f5bc de85 a53c
00000190: 2a3f e93c bee3 a13c eed1 c1bc ced3 f43c
000001a0: 687b ee3b 0c09 593c 8475 493c ec10 29bd
000001b0: 62d4 e03c 6eac a3bc 254c 5f3d bfee 643d
000001c0: c669 c43c 14a6 353c b46a b7bc 6629 87bc
000001d0: 5cae 29bd 40f1 7abb 7bad 293d 8a77 e33c
000001e0: 4eca f33c 22fb bfbc 86d4 fe3c 40fb 22bb
000001f0: f014 6b3b 370c 163d fe17 9b3c 3618 913c
00000200: 5eb2 b93c 885d 933b d86d f2bb 8c31 62bd
00000210: 0a1b a9bc e4df 0b3c bbf2 043d f1a8 2a3d
00000220: 0374 5f3d d20d b5bc fd01 383d 7408 2abd
00000230: 0e6c 47bd 0066 b8bb 94dd 723c 0e18 e5bc
00000240: 543d e2bc 8c18 e0bc 0a46 babc 5ee0 b4bc
00000250: 06d0 5ebd 480f 8b3b 7390 083d 6275 15bd
00000260: e0e8 c0ba 3bfe 6bbd c7d0 263d 5856 fcbb
00000270: b5ea 063d d467 603c 06b9 c63c 96eb 8fbc
00000280: 9cc7 6d3c 9c2b c2bc 8ebc 50bd 9e18 d83c
00000290: beba 923c 20e4 5cbd e84f 06bd c280 813c
000002a0: 92ab f4bc 0736 1c3d c523 783d ade9 623d
000002b0: 60dc eeba e0ca 6fbd 100e 3bbd decd bebc
000002c0: 0025 5ebd 90c0 cbbb e87c 11bd 523d edbc
000002d0: 1895 d03b cea0 debc 603c 97ba 9f39 0cbd
000002e0: 0041 2e3a 083b d1bb aa50 cb3c 544f aebc
000002f0: 2a03 0dbd 8070 b5bc 863a e83c 932a 0d3d
00000300: ba03 99bc 2f77 393d 750c 203d 175a 1b3d
00000310: c36e 0b3d 6235 a7bc 5617 c93c 9092 6abd
00000320: bd6a 583d 5777 593d 826e 4bbd 2c46 70bc
00000330: 1220 ba3c 4a1d bcbc 41f8 0ebd cdd6 0f3d
00000340: 4f71 123d d436 06bc 0d3a 043d de60 1dbd
00000350: e5a9 47bd 0c03 59bd ec18 d3bc c0d2 d7bb
00000360: 0014 f839 1e0c 50bd 5dc4 673d 9ef2 c63c
00000370: 4e47 f83c a699 acbc f5b2 523d 9058 75bb
00000380: 514a 2e3d e430 303c 28d2 e1bc 17fb 433d
00000390: a83e dfbb 4ba0 743d 1862 f13b fbd6 0f3d
000003a0: 8e2c 0ebd b9d9 4dbd b687 dfbc bafb 923c
000003b0: 3218 c13c 50f4 eabc 59a2 5bbd 5218 acbc
000003c0: 1eb2 c63c ec25 2abd 0039 303a 3027 53bd
000003d0: e720 783d 38bd ce3b 120c 84bc 66ef da3c
000003e0: 08f4 d1bb 34ba 5f3c 1f27 5d3d f517 50bd
000003f0: fba1 053d d0a3 3d3b 803d 55ba 40c7 0bbd
0.011661049 0.01694781 -0.0051609613 0.034442972 -0.017934907 0.032682355 0.0012512952 0.059484046
-0.0011268817 -0.04857297 0.033067647 0.031239051 -0.03225749 -0.022879612 -0.049805984 -0.017757237
0.004136633 -0.017899495 0.052418534 -0.045053326 0.053317476 0.025243964 -0.015884966 0.012155589
-0.0074807294 0.025025252 -0.050723974 -0.01669249 0.01399098 -0.0028559044 -0.033347607 0.013469722
-0.05095209 -0.029672213 -0.022921864 -0.04627037 0.0129872 0.0013316646 0.055767234 -0.022587355
-0.051770005 0.0478565 -0.03018474 -0.022569336 -0.030993093 -0.040437207 0.041794416 0.014484588
0.03076217 0.056433063 -0.030027375 -0.023957867 -0.050875723 0.043261047 -0.05081107 0.010838535
0.029031236 -0.041454926 0.015322659 0.043109674 -0.027474165 -0.011143677 -0.008217182 0.013470765
0.04285605 -0.0335941 0.01341163 0.049638953 -0.019491341 -0.028365273 -0.03577946 -0.022010133
0.038266968 -0.011869665 -0.023360342 0.051004123 0.0015241392 -0.046827845 0.049881127 -0.0053742453
-0.043083683 -0.018236991 0.04285619 0.060306694 -0.027209342 0.0023517571 0.036002774 0.0118134655
-0.009743806 0.045766886 -0.008206703 0.06075589 0.018642586 -0.040516615 -0.016442835 0.04559112
0.008707177 -0.050714865 -0.029986985 0.020205434 0.028472502 0.019761916 -0.023659673 0.029886153
0.0072778948 0.013246786 0.012296084 -0.041275904 0.027445022 -0.019979682 0.054515976 0.05589175
0.023976218 0.011086959 -0.022389747 -0.016499233 -0.041426048 -0.003829077 0.04142521 0.027766962
0.029759552 -0.02343518 0.031107198 -0.0024868995 0.0035870634 0.036632743 0.018932339 0.01771174
0.02266806 0.004497234 -0.0073983483 -0.055223033 -0.020642776 0.008537266 0.03245805 0.04166502
0.054553997 -0.022101317 0.04492377 -0.041511968 -0.048687033 -0.0056273937 0.014823336 -0.027965572
-0.027617134 -0.027355455 -0.022738475 -0.022079643 -0.054397605 0.004243765 0.033340883 -0.036488898
-0.001471784 -0.0576155 0.04072645 -0.0077007227 0.032938678 0.01369663 0.024258148 -0.01756839
0.014512923 -0.023702435 -0.05096107 0.026378926 0.017911311 -0.053928494 -0.03279105 0.015808467
-0.029866967 0.038137462 0.060580987 0.05539863 -0.0018223636 -0.058543086 -0.045667708 -0.023291524
-0.054234505 -0.0062180236 -0.03551951 -0.028959904 0.0063654296 -0.027176287 -0.0011538379 -0.03423464
0.0006647259 -0.006385211 0.024818737 -0.021278061 -0.034426846 -0.02214837 0.028348219 0.03446443
-0.018678535 0.045279678 0.03907438 0.037927713 0.034041177 -0.020411197 0.02454726 -0.05726868
0.05283617 0.053092327 -0.049665935 -0.014665168 0.02272037 -0.022963185 -0.034904722 0.03511696
0.03575259 -0.008191783 0.032281924 -0.038422458 -0.04874601 -0.05298142 -0.02576872 -0.0065864027
0.00047317147 -0.050792806 0.05658375 0.02428561 0.030307438 -0.021069359 0.051440198 -0.003743682
0.042551342 0.010753844 -0.02756603 0.04784688 -0.006812889 0.05972318 0.00736643 0.03511713
-0.03471046 -0.050256465 -0.027286392 0.017942298 0.023571108 -0.02868095 -0.053621624 -0.02100769
0.024254855 -0.04154007 0.0006722361 -0.051551044 0.060578253 0.0063091777 -0.016119037 0.026725482
-0.0064072646 0.013655234 0.053992387 -0.050804097 0.03262518 0.0028936751 -0.00081344694 -0.034125566

sequential/conv2d/Conv2D f4 [32]
00000000: 0000 0000 0000 0000 0000 0000 0000 0000
00000010: 0000 0000 0000 0000 0000 0000 0000 0000
00000020: 0000 0000 0000 0000 0000 0000 0000 0000
00000030: 0000 0000 0000 0000 0000 0000 0000 0000
00000040: 0000 0000 0000 0000 0000 0000 0000 0000
00000050: 0000 0000 0000 0000 0000 0000 0000 0000
00000060: 0000 0000 0000 0000 0000 0000 0000 0000
00000070: 0000 0000 0000 0000 0000 0000 0000 0000
0.0 0.0 0.0 0.0 0.0 0.0 0.0 0.0
0.0 0.0 0.0 0.0 0.0 0.0 0.0 0.0
0.0 0.0 0.0 0.0 0.0 0.0 0.0 0.0
0.0 0.0 0.0 0.0 0.0 0.0 0.0 0.0

sequential/conv2d/Conv2D1 f4 [32, 3, 3, 1]
00000000: 70cc 0abc 5ec2 b93d 8689 96bd 584d 583d
00000010: e015 d13c f8aa e2bd b2ec aebd c4b3 00be
00000020: ae68 893d 8ff5 093e dab2 fb3d d0d4 0dbe
00000030: a07a 633c beeb b43d 98fd 49bd 0ae8 e63d
00000040: d04b 8ebd 264b b2bd 5fb0 e9bd 64bf 783d
00000050: 5607 1cbd 6c7e 283d 82f2 ae3d 96e7 20bd
00000060: ccc7 aebd daf5 ea3d b0a3 b33c 0800 ae3d
00000070: 2ac4 a4bd 2001 8bbc 2467 c7bc 68ba 8b3d
00000080: 4ca8 c53d 396f 093e 80cc c9bb 2f90 a9bd
00000090: 84c4 03bd 582d b83c e7b3 9ebd 90b6 b43c
000000a0: a08c 883d e218 debd d74f b3bd 0e42 e93d
000000b0: c251 e33d 589c 843d e8b7 b9bd c876 c73c
000000c0: aaf5 8e3d 3826 87bc b010 86bc 92c1 d03d
000000d0: e87e 06be 315c cfbd 0889 cf3d c619 af3d
000000e0: e6dc 2cbd e25b 04be a06b c7bb c0e6 613b
000000f0: 8c11 b1bd 7f04 d1bd 16e1 65bd 9295 abbd
00000100: 8a3f d4bd d529 013e 9c70 98bc 981c f0bd
00000110: 6cc1 0d3d 1289 ef3d 566e 27bd fa6e ebbd
00000120: e674 f33d 04cc 613d be6d 1cbd 4080 84bc
00000130: 468e d03d feec d4bd bf99 81bd 5843 253d
00000140: 9836 cdbd 8a23 6ebd 7995 d1bd 6cbb 433d
00000150: 3802 693d 4b6b 073e a077 033d bd3d fdbd
00000160: 1cba 6f3d 91f3 0ebe b450 c4bd 92f4 cb3d
00000170: 429a acbd b2b8 77bd c0e8 593b 10e6 233c
00000180: c86f e63c 009e 66bc da13 bdbd 6ec7 4ebd
00000190: a8db ad3c 444c 2b3d a42f ab3d 48e5 353d
000001a0: ca04 ea3d e262 f33d 00a9 0ebe 648f 1c3d
000001b0: 4afb f03d b02d 793d 22ee 2cbd 3cb1 413d
000001c0: daa7 13bd e3a4 0a3e a06f f03b 005b 4f3a
000001d0: 2654 a7bd 8026 ee3a 8808 913d 1240 a6bd
000001e0: 1f5f e4bd 28b4 903d 3ea0 ec3d 1806 893d
000001f0: 41c1 c0bd afaa 0a3e a005 5e3c a2e8 7bbd
00000200: cede ddbd 94cc 78bd 7261 33bd 6026 873d
00000210: d23e 9ebd 8f20 0cbe fc45 63bd 0c8b d63d
00000220: d84b 543d 5892 4a3d a67e bfbd 6206 04be
00000230: 4ada acbd c637 bf3d 2c47 07be 999d d7bd
00000240: 8f02 073e ca69 f63d 94a6 063d d110 00be
00000250: 3c3a 85bd f4d5 d8bd a064 a83b e9fa 0cbe
00000260: 10b1 743c 66b8 b73d c003 c43b f2c4 a63d
00000270: a67e d73d 3f42 b0bd de28 03be 502b 003c
00000280: 207f d53d 66f5 d8bd 40b3 903b 129c 16bd
00000290: a10a 11be fcbb 593d b4a2 73bd f653 f03d
000002a0: e50c 0fbe efdf 8bbd f097 e63c b5d9 81bd
000002b0: 9c7a e8bd dbae 85bd 4480 b0bc b41e ffbc
000002c0: 2cb2 c2bd 3806 62bd ccdf dcbd 301f c3bd
000002d0: d8c5 f3bc 00f5 cdbd 5480 52bd 30ca 0cbd
000002e0: 326f 0dbe 7ad7 e83d 4c22 ac3d fa6a bcbd
000002f0: 18a6 843d fb5f 04be 3247 bf3d 1a93 04bd
00000300: 98b8 193d 11d5 08be 5008 af3c 5eb2 983d
00000310: b818 a7bd 65e5 0abe 880e b53d 0060 3a3b
00000320: d0ad 303c 881b cb3d 3084 1d3d a0a6 f1bb
00000330: bf2f 11be 15ad 89bd 40ca 9c3b c143 dcbd
00000340: a0d3 2f3c a2cb 903d 5447 7c3d 9200 a83d
00000350: 2ca9 843d 929b f23d a619 983d d0d2 02bd
00000360: ed29 063e 70fd 283c 6f1d 0b3e e246 983d
00000370: 38e0 0ebd 5cfb f6bd 1051 a9bc 2843 bcbc
00000380: f85c 01bd e6f6 fb3d 923e 05be d870 943d
00000390: 79c9 0c3e 00dc e8ba 00d4 6c3d badd 64bd
000003a0: be8d fabd 808a 033c 30eb e43c 23d5 0a3e
000003b0: 74ac 313d b1d1 09be 78d3 013d b433 a7bd
000003c0: 804f 94bc 9ebc 90bd a04c b73d 3039 20bd
000003d0: b8c3 123d 142b 393d d182 113e 1465 aabc
000003e0: 617b d8bd e138 96bd b8a5 963d 00c2 a3b9
000003f0: 6685 ff3d 0a43 dd3d 1876 8f3c 700e fb3c
-0.008471593 0.09070276 -0.07350449 0.052808136 0.025523126 -0.11067766 -0.0854124 -0.12568575
0.06709419 0.1347258 0.122899726 -0.13850713 0.013884217 0.08834027 -0.04931411 0.11274727
-0.06948054 -0.0870574 -0.11410593 0.0607294 -0.038092934 0.04113619 0.085423484 -0.039283358
-0.08534202 0.11472674 0.021928638 0.084961 -0.08045228 -0.01696831 -0.024341173 0.068226635
0.09651241 0.13421334 -0.0061584115 -0.08279454 -0.032169834 0.02248256 -0.077491574 0.022059709
0.06667447 -0.1084459 -0.087554626 0.11389552 0.110995784 0.06475133 -0.090682805 0.024348632
0.069804505 -0.016497716 -0.01636538 0.101931706 -0.13134348 -0.10125006 0.101335585 0.08549838
-0.042202853 -0.12925676 -0.006085828 0.0034469813 -0.08645925 -0.10205936 -0.05612286 -0.08378138
-0.103636816 0.12613614 -0.018608384 -0.11724204 0.03460829 0.11696066 -0.04087671 -0.114957765
0.11887531 0.055126205 -0.038190596 -0.016174436 0.101833865 -0.10396765 -0.06328153 0.040347427
-0.100201786 -0.05813936 -0.10233588 0.04778616 0.05688688 0.13224523 0.032096505 -0.12365291
0.058527097 -0.139601 -0.095857054 0.099587575 -0.0842786 -0.060478874 0.0033250302 0.010003582
0.028129473 -0.014075756 -0.09232302 -0.05048316 0.021222904 0.04182078 0.08358696 0.044408113
0.11426695 0.11884095 -0.13931656 0.038222685 0.117666796 0.060834587 -0.04221929 0.047288164
-0.036048748 0.13539462 0.0073375255 0.00079099834 -0.08170347 0.0018169433 0.07081705 -0.08117689
-0.111509554 0.07065612 0.11554001 0.066906154 -0.0941186 0.13541673 0.013551146 -0.061501153
-0.10833512 -0.060741976 -0.043794103 0.06599116 -0.07726826 -0.13684295 -0.055486664 0.1047574
0.051830143 0.04945597 -0.09350328 -0.1289306 -0.08440073 0.0933681 -0.13210744 -0.10528106
0.1318457 0.120318964 0.032873705 -0.12506415 -0.06505248 -0.10587683 0.0051389486 -0.1376759
0.014934793 0.08970718 0.0059818923 0.08143033 0.10522203 -0.086063854 -0.12808558 0.0078228265
0.10424638 -0.10593681 0.0044158995 -0.036769934 -0.14164211 0.05315779 -0.059481338 0.11734764
-0.13969763 -0.06829821 0.028148621 -0.063403524 -0.11351511 -0.06527492 -0.021545537 -0.03114257
-0.0950664 -0.055181712 -0.10784873 -0.09527433 -0.029757425 -0.10056496 -0.051391914 -0.03437251
-0.13811949 0.11369224 0.08404979 -0.09200092 0.06476992 -0.12927239 0.09339751 -0.03236685
0.037529558 -0.13362528 0.021366268 0.07455896 -0.081590116 -0.1356407 0.08840662 0.0028438568
0.010783628 0.099173605 0.038456142 -0.0073745996 -0.1417837 -0.06722466 0.0047848523 -0.107551105
0.010731608 0.0707009 0.06159146 0.08203234 0.064775795 0.11846079 0.07426767 -0.031939328
0.13101931 0.01031433 0.13585447 0.07435395 -0.0348818 -0.12059662 -0.020668536 -0.022981241
-0.031582803 0.123029515 -0.1301215 0.07248086 0.1374873 -0.001776576 0.057819366 -0.055875517
-0.122340664 0.008028626 0.027944177 0.13557868 0.043377355 -0.13458897 0.031695813 -0.081641585
-0.018104315 -0.07067226 0.08950162 -0.03911704 0.035831183 0.045207098 0.14210059 -0.02080015
-0.10570408 -0.073350675 0.07355827 -0.00031234324 0.124766156 0.10803802 0.017512366 0.030646533

sequential/conv2d_1/Conv2D f4 [64]
00000000: 0000 0000 0000 0000 0000 0000 0000 0000
00000010: 0000 0000 0000 0000 0000 0000 0000 0000
00000020: 0000 0000 0000 0000 0000 0000 0000 0000
00000030: 0000 0000 0000 0000 0000 0000 0000 0000
00000040: 0000 0000 0000 0000 0000 0000 0000 0000
00000050: 0000 0000 0000 0000 0000 0000 0000 0000
00000060: 0000 0000 0000 0000 0000 0000 0000 0000
00000070: 0000 0000 0000 0000 0000 0000 0000 0000
00000080: 0000 0000 0000 0000 0000 0000 0000 0000
00000090: 0000 0000 0000 0000 0000 0000 0000 0000
000000a0: 0000 0000 0000 0000 0000 0000 0000 0000
000000b0: 0000 0000 0000 0000 0000 0000 0000 0000
000000c0: 0000 0000 0000 0000 0000 0000 0000 0000
000000d0: 0000 0000 0000 0000 0000 0000 0000 0000
000000e0: 0000 0000 0000 0000 0000 0000 0000 0000
000000f0: 0000 0000 0000 0000 0000 0000 0000 0000
0.0 0.0 0.0 0.0 0.0 0.0 0.0 0.0
0.0 0.0 0.0 0.0 0.0 0.0 0.0 0.0
0.0 0.0 0.0 0.0 0.0 0.0 0.0 0.0
0.0 0.0 0.0 0.0 0.0 0.0 0.0 0.0
0.0 0.0 0.0 0.0 0.0 0.0 0.0 0.0
0.0 0.0 0.0 0.0 0.0 0.0 0.0 0.0
0.0 0.0 0.0 0.0 0.0 0.0 0.0 0.0
0.0 0.0 0.0 0.0 0.0 0.0 0.0 0.0

sequential/conv2d_1/Conv2D1 f4 [64, 3, 3, 32]
00000000: d6d9 52bd d0eb 98bd 7673 3b3d 1441 e53c
00000010: 14bf 8ebc dd16 943d 9269 373d 3b62 893d
00000020: fbde 8bbd d6a3 503d 1389 aa3d 6b43 38bd
00000030: 3422 ce3c 1bb4 61bd 406c 74bc 4bc7 82bd
00000040: e007 bebc 1662 58bd 9e10 a4bd c081 82bc
00000050: f84a 9bbd 9120 a03d c9f2 a53d fa92 213d
00000060: 43d2 953d 0c64 883c 20d8 95bc 60bd a3bc
00000070: e82f 86bd 2af8 2d3d e1d4 993d ec27 babc
00000080: 66e9 20bd fe61 a5bd 1618 41bd f0ea 36bd
00000090: 1639 30bd 3aba 3c3d 50f5 80bb 3540 8a3d
000000a0: 00fa 4cbc 7b8c 00bd e07c 09bd 36f5 033d
000000b0: 3904 933d e0e9 8fbc 2b09 7ebd 4a49 6a3d
000000c0: 006c 713b 6cb4 8f3c 6644 80bd a89a 0a3c
000000d0: 8aa4 0d3d d995 923d 4075 d5ba 81e7 823d
000000e0: 6040 7b3b c0e5 813c 20ac 4ebd 9663 46bd
000000f0: eb29 0dbd ab73 8b3d 9552 893d 0572 803d
00000100: 609c 013d 0274 6d3d c03a 423c f0d2 9abd
00000110: e020 b33c 703a 113d 331d 843d 68c2 99bd
00000120: 18d0 683c 8c65 9c3c e66b 3f3d 7136 a23d
00000130: 38c9 a8bd 8046 5bba 8646 3a3d e692 8dbd
00000140: f473 b73c 4c14 8c3c 752f 803d a880 6ebc
00000150: 8c4c 823c 34dd 88bc 5b93 54bd 4a4d 503d
00000160: c3a5 84bd 66f9 363d 3a4c 713d 5eea 97bd
00000170: 7d07 a73d 50c9 1dbd 3b5f 0abd b696 673d
00000180: c047 9d3c d44b d63c eb1d 6bbd 80ee acbb
00000190: 204e 99bc 5a63 683d 0048 943a eb8d 1cbd
000001a0: 260e 98bd 76a5 c3bc 0c31 a83c abf8 a43d
000001b0: 4a8d 063d ccec 94bc 365f 92bd 7a4e 7c3d
000001c0: f6cb 283d 6044 a0bc 6073 023d 0c5c d73c
000001d0: 2b90 a6bd 939f 89bd cc26 a3bc 00e1 bbbc
000001e0: 83e0 a9bd 33ce a53d 60ba 37bd 5860 1b3c
000001f0: b201 4e3d b33f 923d 80c5 c13c 301a 20bd
00000200: 4c5b eebc bd6e 9c3d 00d1 17bc 205e b03c
00000210: d066 42bd 6c03 b0bc bb2d 47bd d04f cb3b
00000220: 50dd 8d3b cb82 6dbd 3620 4b3d 7667 80bd
00000230: 5000 8b3b e856 343c 79df a73d 6090 50bd
00000240: f480 f93c c04f 623c d87c 61bc 33d7 92bd
00000250: d070 b0bb 604e b1bc 8e49 8bbd ce1d 93bd
00000260: cce7 d1bc 0b0a 1fbd ea51 083d 41ba 803d
00000270: bb07 8fbd 202d a63c 96f9 c0bc ac10 aa3c
00000280: 6396 a9bd b032 84bb d217 673d 763c 363d
00000290: 28d0 563c 660b 2cbd 0a98 503d 80f3 a7bc
000002a0: 80aa 61bc 402f 6fbc c387 a23d d09c b33b
000002b0: d87c 07bc 881e 87bd d28b 343d 5062 0b3d
000002c0: a34f 8abd 00a7 1f3c e013 8fbd 5b7e 92bd
000002d0: 60de d9bc bb17 81bd 30ab fd3b 2b7d 92bd
000002e0: 0b1d a8bd 8ec2 8dbd c5c5 873d b0f4 26bd
000002f0: b4cf be3c 55f0 a03d 4c7a bf3c 686b a0bd
00000300: 949f d33c ca35 553d e0ce 6cbd 008b 08bb
00000310: 6032 293b 005e 813b 6670 673d 83ff 893d
00000320: 4c7d bd3c 7a9f 5d3d 0338 96bd 3439 d13c
00000330: 4987 a13d 7bd5 05bd a368 8abd d084 8fbb
00000340: 805d 69ba f2e1 793d 32ab 7d3d 9abe 5d3d
00000350: 604c 143d 1a44 283d d8c4 91bd ae43 9cbd
00000360: 0c0e 8a3c ab6a 39bd 6096 98bd b007 273d
00000370: cb00 1ebd e0b8 88bd a859 17bc c081 053d
00000380: d096 debb c06a a5bd 6831 45bc fe66 89bd
00000390: d242 7d3d 200e 0ebd a080 debc bb84 a6bd
000003a0: 60c6 f3bc 43f9 833d ac97 f53c a057 6abd
000003b0: 306c 99bb 5a01 303d a619 66bd 00d0 7d39
000003c0: 40c4 f0bc 90a1 243d 8060 88bc 88de 89bd
000003d0: d6dd d7bc bb6e 23bd c513 983d 4561 a13d
000003e0: 608b 5abd 680a 4e3c e89c 99bd 4c97 a13c
000003f0: a057 92bc 222f 623d 1263 583d 9090 91bd
-0.051477276 -0.07466853 0.04576441 0.027985133 -0.017425098 0.07230923 0.044778414 0.06708189
-0.068296395 0.050937496 0.08326926 -0.04498617 0.025162794 -0.055103403 -0.014918387 -0.06385668
-0.023197114 -0.052827917 -0.08010982 -0.01593101 -0.075826585 0.078187115 0.08102948 0.03944681
0.07315495 0.016649269 -0.018291533 -0.019987762 -0.06552106 0.042472996 0.075113066 -0.022724114
-0.039285086 -0.08075331 -0.04714211 -0.044657648 -0.04302319 0.046076037 -0.0039354935 0.06750528
-0.0125107765 -0.031383973 -0.033566356 0.032216273 0.0717854 -0.017567575 -0.062020462 0.0571988
0.0036838055 0.017542087 -0.06263046 0.0084597245 0.034580745 0.071574874 -0.0016285554 0.06391812
0.003833793 0.015856624 -0.05045712 -0.048434816 -0.034463804 0.06809171 0.067052044 0.062717475
0.03164327 0.05797196 0.011854827 -0.075597644 0.021866262 0.03545612 0.06450882 -0.07507783
0.01420977 0.01909139 0.04673376 0.0792054 -0.082415044 -0.00083646923 0.045477413 -0.06912784
0.022394158 0.017099522 0.06259052 -0.014557041 0.015905641 -0.01670704 -0.05189834 0.05085496
-0.06476929 0.04467144 0.058910586 -0.07417749 0.08155725 -0.038522065 -0.033782225 0.056540214
0.019199252 0.026159205 -0.05740158 -0.005277455 -0.01871401 0.056735374 0.0011312962 -0.03822128
-0.074245736 -0.023882609 0.0205312 0.08055242 0.032849588 -0.01817932 -0.07147066 0.06159828
0.041210137 -0.019563854 0.03184831 0.026289009 -0.081329666 -0.067198895 -0.01991596 -0.022934437
-0.08294775 0.0809597 -0.044855475 0.009483419 0.050294586 0.07141056 0.023653746 -0.039087474
-0.029096268 0.07638309 -0.009266138 0.021529257 -0.04746133 -0.021486007 -0.048627596 0.0062045828
0.004329361 -0.057986062 0.049591266 -0.062697336 0.0042419806 0.011007048 0.08196921 -0.050918937
0.030456997 0.013812959 -0.013762675 -0.07169952 -0.005384542 -0.021643817 -0.06801139 -0.07183419
-0.025623225 -0.038827937 0.033281244 0.06285525 -0.06983896 0.02028519 -0.023556512 0.020759903
-0.08280637 -0.0040343627 0.0564192 0.044491254 0.013111152 -0.042003058 0.050926246 -0.020501852
-0.0137735605 -0.014598668 0.07936051 0.00548134 -0.008269511 -0.0659762 0.044078656 0.034029305
-0.06753471 0.009744406 -0.06986213 -0.07153007 -0.026595294 -0.06303354 0.0077413544 -0.0715278
-0.082086645 -0.06921874 0.066295184 -0.040760696 0.0232924 0.0785834 0.023373745 -0.07832986
0.025832929 0.05205325 -0.05781448 -0.0020834804 0.002581738 0.0039479733 0.056503676 0.06738188
0.023131035 0.054107167 -0.07334902 0.025539972 0.07887132 -0.032674294 -0.06758239 -0.004379846
-0.0008902177 0.061006494 0.061930843 0.05413685 0.03620565 0.04108057 -0.07117623 -0.076300964
0.016852401 -0.045267742 -0.07450557 0.040778816 -0.038574975 -0.06675887 -0.009237684 0.032594442
-0.0067928806 -0.080770016 -0.012035705 -0.06709097 0.061831303 -0.03468144 -0.027160943 -0.08130785
-0.029757679 0.06444027 0.02997955 -0.057212472 -0.0046820864 0.04297004 -0.056176804 0.00024205446
-0.029390454 0.04019314 -0.016647577 -0.067318976 -0.026350897 -0.039900523 0.07425646 0.07879881
-0.053355575 0.012575723 -0.075006306 0.019725464 -0.017864048 0.05522073 0.052828856 -0.07107651
