tests/test_resources/models/simple_mnist_convnet_non_quantized.tflite (tflite, 141672 bytes, 5 tensors)

sequential/dense/MatMul f4 [10, 1600]
000000 c8 6b 1f bc aa c5 fb bc 5c 81 94 bc 29 b2 fa bc
       -0.009730287 -0.030733902 -0.01812809 -0.030602532
000010 28 13 9a 3b fc 0e 7e bc 2c f9 68 bc 4f be 35 3d
       0.0047019906 -0.015506502 -0.014219563 0.044370946
000020 f5 e6 6f 3d 9b 83 20 3d bd 87 77 3d ac 33 b2 bc
       0.058569867 0.03918801 0.060432184 -0.021753155
000030 38 11 fb 3b 64 c8 3d bd ff 46 74 bd e4 91 32 3c
       0.0076619647 -0.046333686 -0.05963802 0.010899041
000040 60 7c b6 3a 17 03 5d 3d c2 1f 8e 3c 80 14 34 bc
       0.0013922565 0.053958025 0.017349128 -0.010991216
000050 bf 80 74 bd df cd 36 3d 1b 87 33 bd a0 39 c2 bb
       -0.059693094 0.044629928 -0.04383002 -0.0059272796
000060 7c a6 73 3c e6 3e c8 3c 68 43 2c bd 26 42 84 3c
       0.014871236 0.024444055 -0.04205647 0.016144823
000070 39 ed 31 3d 30 81 57 bb 1a 6d 08 bd a4 44 25 3c
       0.043439124 -0.0032883398 -0.033307172 0.010087166
000080 76 20 d4 bc 25 ad 26 3d 28 25 5e bd 82 06 dc bc
       -0.025894385 0.040692467 -0.054234654 -0.026858572
000090 af 58 78 bd 82 d0 ae 3c 52 8f 87 3c c3 9a 0c bd
       -0.06063145 0.021339659 0.016547833 -0.03432728
0000a0 0e d0 dc 3c 6b 52 68 bd d0 1a dd bb 79 6f 68 3d
       0.026954677 -0.056719225 -0.006747581 0.056746934
0000b0 33 85 07 3d 48 10 8c 3b 1b 13 4e bd 31 57 48 3d
       0.033086013 0.004274402 -0.05031119 0.048911277
0000c0 75 78 79 bd 5e 79 65 bd 66 66 b6 3c 2e 36 f2 bc
       -0.060905892 -0.056023948 0.022265624 -0.02956685
0000d0 b5 2c 3b bd 71 62 6f 3d 9f e9 36 3d 0f 9b 6f 3d
       -0.045696933 0.05844349 0.044656392 0.058497485
0000e0 23 39 fd bc 48 48 ba 3b 88 5d 18 bc a8 58 c5 bc
       -0.030911034 0.005684886 -0.009299643 -0.024090126
0000f0 92 31 19 bd c4 2a 0b 3c da 96 ee 3c df f5 38 3d
       -0.03740079 0.008494083 0.029124666 0.045156356
000100 66 ab 96 3c a4 b1 79 bc 6f bd 1b 3d d2 73 2a bd
       0.018392276 -0.015240107 0.038022455 -0.04161436
000110 dd e7 5c 3d 00 a0 22 38 83 66 4d 3d 9b 62 69 3d
       0.05393206 3.877282e-05 0.05014659 0.056978803
000120 ae 67 64 bd 83 9b 08 bd 16 37 a8 3c c4 77 05 3c
       -0.05576294 -0.033351433 0.02053408 0.00814623
000130 c6 7c c6 3c 30 e3 27 bc f7 e1 6d 3d 8e 64 db bc
       0.024229418 -0.010247037 0.058076825 -0.026781347
000140 b8 bb a8 bb d8 92 bd 3b 0c 8c 12 3c 18 f8 ce 3b
       -0.005149331 0.0057853274 0.008944523 0.006316196
000150 17 bd 47 3d 2c 21 3b 3c 32 c6 d6 3c f0 a5 4f bc
       0.048764315 0.011421483 0.026217554 -0.01267384
000160 cc 3d 23 3c d0 e2 b5 bc ba 30 ce 3c f4 83 5a 3c
       0.009963464 -0.02220288 0.025169719 0.013337124
000170 21 db 22 3d 93 48 62 3d 14 19 5c 3c 92 7b d3 bc
       0.03975976 0.055244993 0.0134337135 -0.025815759
000180 e8 da ef bb ed 44 44 3d d3 b7 49 3d b2 05 70 bd
       -0.007319797 0.047917295 0.049247574 -0.05859918
000190 a0 71 ac ba 93 1f 76 bd 2e dc 83 3c 32 f0 8e 3c
       -0.0013156421 -0.060088705 0.0160962 0.017448518
0001a0 26 57 9f 3c 58 44 e1 3b b3 08 47 bd 70 81 2f bb
       0.019450735 0.0068746023 -0.04859228 -0.0026780032
0001b0 be 37 81 3c 9b 62 4b bd 9c b3 22 3c fd f4 15 3d
       0.01577365 -0.049654584 0.0099305175 0.036610592
0001c0 51 43 30 3d 4e dc c3 bc 3d 8a 2f 3d 4c 19 07 bd
       0.043032948 -0.02390876 0.042856444 -0.03298311
0001d0 2b a3 62 bd 55 da 24 bd 3f 23 19 3d 5c 8d 13 3c
       -0.05533139 -0.04024728 0.03738713 0.009005871
0001e0 5b df 19 3d 58 54 09 bd a0 bf 40 bb c4 0a 76 3c
       0.037566524 -0.033527702 -0.0029411092 0.015017215
0001f0 6b d3 27 bd 58 5b 92 3b 36 b1 ab 3c b0 ab 52 3b
       -0.04097311 0.0044664554 0.020958524 0.003214579
000200 2a 02 24 bd 5f e8 56 bd cc 97 29 3c 62 28 ef 3c
       -0.040041126 -0.0524677 0.010351133 0.02919406
000210 4c e0 00 bd 27 8f 73 3d 00 9d 43 ba 24 a3 11 3c
       -0.031463906 0.059462693 -0.00074620545 0.008888993
000220 d1 92 48 3d 33 25 36 3d ec fb 05 3c e6 9f 88 3c
       0.04896814 0.04446907 0.008177739 0.016677808
000230 ae 6d de 3c d3 55 06 3d 1f 30 76 3d dd 0c 57 3d
       0.027151909 0.032796692 0.060104486 0.0525025
000240 9c f4 18 3c 8f c2 67 bd f7 e4 04 3d aa 75 97 3c
       0.009335663 -0.05658203 0.03244492 0.018488724
000250 21 39 12 3d 77 82 37 bd ec b8 67 3c a1 b4 38 3d
       0.035699014 -0.044802155 0.01414321 0.045094136
000260 0c f6 21 bd e0 a0 b9 bb 9c 16 23 bc 94 b9 77 bc
       -0.03954129 -0.0056649297 -0.009954121 -0.015119929
000270 18 ad ee bb 8e 27 2f bd a8 72 df bc 34 f3 3c 3c
       -0.007283818 -0.04276233 -0.027276352 0.0115325935
000280 f2 3e 0b bd 03 ca 67 3d 60 79 70 bd 98 58 90 bb
       -0.033995576 0.056589138 -0.058709502 -0.0044050924
000290 25 1d 06 bd 30 38 55 bd bb 10 43 bd ef 16 58 3d
       -0.03274264 -0.052055538 -0.047623377 0.052756246
0002a0 ea a9 bf 3c de 77 93 bc 24 71 27 3c 90 07 67 3b
       0.023396451 -0.018001493 0.010219846 0.003525231
0002b0 17 2a 48 3d 9d 55 10 3d b0 c1 5c 3b 24 0e d2 bc
       0.048868265 0.035237897 0.0033684783 -0.025641508
0002c0 17 1f 73 3d 48 63 9f bb 30 a9 24 bd 6d eb 50 3d
       0.05935582 -0.00486413 -0.040200412 0.05100577
0002d0 cc 4a 0e 3c 1f bf 44 3d dc fa 39 bc 80 b6 f6 39
       0.008684825 0.04803383 -0.011351313 0.0004705675
0002e0 34 a9 2a 3c 4c 3a 51 3c dc 39 58 bc d0 ab 1f bc
       0.010416318 0.012770247 -0.0131973885 -0.009745553
0002f0 0c 0e 90 bc 09 02 14 3d 72 ac 66 bd f7 a1 2d 3d
       -0.017584823 0.036134753 -0.0563168 0.04239079
000300 38 fd bf 3b e8 2c 98 bc ac 29 e6 bc c4 ce 24 3c
       0.0058590434 -0.0185761 -0.028096043 0.010059062
000310 e7 d3 0b 3d 87 50 0d 3d 82 e9 e9 3c aa 80 5b bd
       0.034137633 0.034500625 0.028553728 -0.0535895
000320 98 76 af bb 22 92 ba bc ec 5e 28 bc d7 ca 52 3d
       -0.0053547136 -0.02277476 -0.010276537 0.051462974
000330 da 7d f7 3c 38 8c 5d bd b8 5e e6 bc 5c e5 60 bd
       0.030211378 -0.0540888 -0.028121337 -0.054906234
000340 01 18 04 3d 96 58 8f 3c 79 72 54 3d 26 17 d5 bc
       0.032249454 0.017498296 0.051866982 -0.026012015
000350 42 05 84 bc 03 1b 00 3d 38 6c 75 bd 48 f3 dd bb
       -0.016115788 0.03127576 -0.05991766 -0.006773386
000360 70 89 60 bd 06 95 35 bd 78 bd 95 bb ff 8c 33 3d
       -0.05481857 -0.044331573 -0.0045697056 0.043835636
000370 2b 50 26 bd 4c 58 36 bd 24 7e 12 3c 18 1a 2f bc
       -0.040603798 -0.0445178 0.008941207 -0.010687374
000380 c6 64 1e bd b7 75 72 3d b9 bd 5c 3d 61 0e 18 3d
       -0.038670324 0.059194293 0.05389187 0.037123088
000390 19 cd 03 bd bc 70 36 3c 39 ea 71 3d 54 13 52 3c
       -0.03217802 0.011135276 0.059061263 0.012821991
0003a0 c8 32 2e bc 67 b0 2f 3d ff bf 41 3d 46 3d 88 bc
       -0.010632224 0.04289284 0.047302242 -0.01663078
0003b0 91 71 1b 3d ee 8f d0 bc b0 49 40 bd 29 e0 f7 bc
       0.037950102 -0.025459256 -0.046945274 -0.030258255
0003c0 d8 e6 e9 3b e6 c6 eb 3c c1 d8 11 3d 55 84 78 bd
       0.0071381144 0.028781366 0.035607103 -0.060673077
0003d0 b3 69 51 bd f4 df ea bc 70 17 44 3b 14 e3 2e 3c
       -0.051126193 -0.028671242 0.0029921196 0.010674257
0003e0 aa 56 9f 3c fe f7 35 bd 4f dd 6c 3d d0 48 76 bd
       0.019450504 -0.044425957 0.057828244 -0.060128033
0003f0 9a d0 8c 3c 6d 83 33 3d 02 bc 71 bd 90 dc 4f 3b
       0.017189313 0.04382651 -0.05901719 0.003171716

sequential/conv2d/Conv2D f4 [32]
000000 00 00 00 00 00 00 00 00 00 00 00 00 00 00 00 00
       0.0 0.0 0.0 0.0
000010 00 00 00 00 00 00 00 00 00 00 00 00 00 00 00 00
       0.0 0.0 0.0 0.0
000020 00 00 00 00 00 00 00 00 00 00 00 00 00 00 00 00
       0.0 0.0 0.0 0.0
000030 00 00 00 00 00 00 00 00 00 00 00 00 00 00 00 00
       0.0 0.0 0.0 0.0
000040 00 00 00 00 00 00 00 00 00 00 00 00 00 00 00 00
       0.0 0.0 0.0 0.0
000050 00 00 00 00 00 00 00 00 00 00 00 00 00 00 00 00
       0.0 0.0 0.0 0.0
000060 00 00 00 00 00 00 00 00 00 00 00 00 00 00 00 00
       0.0 0.0 0.0 0.0
000070 00 00 00 00 00 00 00 00 00 00 00 00 00 00 00 00
       0.0 0.0 0.0 0.0

sequential/conv2d/Conv2D1 f4 [32, 3, 3, 1]
000000 70 37 86 bc 1e aa 8a 3d e8 21 44 bd 84 ad f0 bd
       -0.016383857 0.067707285 -0.047883898 -0.117518455
000010 9e 66 b4 3d 2e 2d f4 3d 9a b6 f5 3d 1c 45 84 3d
       0.08808635 0.1192268 0.11997719 0.06458494
000020 dc e4 71 bd b4 92 4c 3d 20 ee 04 bc a7 30 c1 bd
       -0.059056148 0.049944595 -0.008113414 -0.09433108
000030 b4 e6 09 3d a2 45 d5 3d e0 bb 22 bc 58 75 63 3d
       0.03366728 0.10413672 -0.009932488 0.05553183
000040 5a d1 a8 bd 2e ef 10 bd e0 fd 09 be 12 08 ba 3d
       -0.08243056 -0.03538435 -0.13475752 0.090835705
000050 35 61 0f 3e 8c 79 ab 3d 88 04 e7 bc 80 dc 25 bc
       0.14001925 0.083727926 -0.028200403 -0.010123372
000060 3c b3 d7 3d 44 a0 07 3d d4 9f 4b 3d 30 d3 83 bc
       0.10532233 0.033111826 0.04971297 -0.016091913
000070 e0 eb 9a 3b 90 ff c0 3c 3e 6e fd bd d8 1c 19 3d
       0.0047278255 0.023559362 -0.12374543 0.037381023
000080 f8 f0 b5 bc be 88 dc 3d 40 a3 13 bc 58 00 d2 bc
       -0.02220963 0.10768269 -0.00901109 -0.02563493
000090 77 b9 0c 3e fa 60 ac 3d 4e 05 af 3d 84 96 b8 3d
       0.13742624 0.08416934 0.08545934 0.090130836
0000a0 cc 83 d0 3d f8 98 f5 bc 98 6f c3 bc ca 4d d9 bd
       0.10181388 -0.029980168 -0.023856923 -0.1061054
0000b0 3b ca 98 bd e8 1d f4 3c 98 18 72 3d 06 52 f5 bd
       -0.074604474 0.029799417 0.059105486 -0.11978535
0000c0 78 a5 a8 3d d6 d9 22 bd 74 a2 d6 bc 25 5c 93 bd
       0.08234686 -0.039758526 -0.02620051 -0.071953095
0000d0 be 84 ae 3d 1c 5f 43 3d 76 7d ad bd 1d 04 98 bd
       0.08521412 0.047698125 -0.084711954 -0.074226595
0000e0 06 00 be 3d c2 9d 54 bd 7c 40 41 bd a0 81 ac 3c
       0.09277348 -0.051908262 -0.047180638 0.021057904
0000f0 c0 35 2a bd e8 7f d2 bd c6 12 ae bd 72 f8 cd 3d
       -0.041555166 -0.102783024 -0.084996745 0.10057153
000100 98 d8 b5 3d f9 c3 ef bd 24 8c 0c 3d 76 9a e6 3d
       0.088792026 -0.11707301 0.034313336 0.1125993
000110 18 3b 16 3d 67 91 03 3e 96 12 8a 3d d8 9b 0a 3d
       0.03667745 0.12848435 0.06741826 0.03384003
000120 e2 26 00 be 92 56 48 bd 32 83 55 bd 92 47 ab 3d
       -0.12514833 -0.048910685 -0.05212707 0.0836326
000130 80 57 6b 3d ec 12 8b bd 30 04 c0 3c 14 4a e0 bc
       0.057456493 -0.067907184 0.023439497 -0.027379073
000140 00 ed 3d bc fc 84 d3 bd 69 fa ee bd 1a 79 68 bd
       -0.01159215 -0.10328099 -0.11668856 -0.056756116
000150 24 2f 10 be 3e 9d c1 3d 94 f1 aa 3d 15 45 02 3e
       -0.14080483 0.0945382 0.083468586 0.12721665
000160 c7 22 07 3e 2c bc 28 bd 9c 5a 8a bd 54 7f 00 be
       0.1319686 -0.04119508 -0.067555636 -0.12548572
000170 2b b4 0b 3e d0 64 67 bc 9b 2b 0e 3e f9 85 b0 bd
       0.13642947 -0.014123157 0.13883822 -0.08619303
000180 00 71 72 3c 50 37 70 bc 48 5a 85 3c 50 f8 08 3d
       0.014797449 -0.014661625 0.016278401 0.033439934
000190 20 79 00 be 42 b3 ae bd 8e 9b ee 3d 42 90 92 3d
       -0.12546206 -0.085302845 0.116507635 0.07156421
0001a0 02 66 5a bd 94 54 c6 bd 3e b9 ab bd e0 de 7c 3d
       -0.05331994 -0.09684101 -0.083849415 0.061735988
0001b0 40 c3 52 3c c8 28 02 3d f0 c8 c9 3d 90 88 d7 bc
       0.012863934 0.031777173 0.09852779 -0.026310235
0001c0 10 8c 01 3c 40 d3 34 bc 40 0c fc bb 74 97 c3 bd
       0.007906929 -0.011036694 -0.00769189 -0.09550372
0001d0 55 b1 00 be 60 55 d8 bc 3c 49 66 bd 63 d6 07 3e
       -0.12567647 -0.026407897 -0.056222185 0.13265376
0001e0 e8 e8 e5 bc 3c 6b c9 3d c2 4f 0f be da f3 56 bd
       -0.02806516 0.098349065 -0.13995269 -0.05247865
0001f0 30 d9 d4 3c 98 01 88 bc c0 c5 72 bd 56 f1 f4 3d
       0.02598247 -0.016602322 -0.05927062 0.11960094
000200 fc 24 86 3d 94 6d 73 bd d8 76 0b be f2 29 a3 3d
       0.06550023 -0.059430674 -0.13619554 0.07966985
000210 4a a3 9b bd f0 84 7a 3c 92 39 d5 3d 07 6e 01 3e
       -0.07599504 0.015290484 0.10411371 0.12639628
000220 72 85 e4 3d 70 ef 03 be 9e bb bd 3d c3 d2 0d 3e
       0.11158265 -0.12884307 0.09264301 0.1384993
000230 b8 93 ec bc 60 69 34 bc b6 f5 49 bd e8 31 5f 3d
       -0.028879032 -0.0110114515 -0.049306594 0.054490954
000240 60 ca eb 3c b8 7b f3 bc d7 cf 00 3e 84 33 41 3d
       0.028783023 -0.02972208 0.12579285 0.04716827
000250 7c 21 ca bd e4 49 7e bd a8 86 ca 3c c2 9a f8 3d
       -0.09869668 -0.062082186 0.024722412 0.12138893
000260 e1 b5 0e 3e 41 b2 0b be a0 b6 07 3d e8 0d 1a bd
       0.13936569 -0.13642217 0.03313315 -0.03761092
000270 4b 0b 01 be dc ed a1 3d 18 eb 53 3d a8 2f ee bd
       -0.12601964 0.07906696 0.051737875 -0.116301835
000280 92 2b ea 3d db e1 92 bd 51 9e 07 3e 56 fa e7 3d
       0.11434092 -0.07171985 0.13243987 0.11327045
000290 c3 63 e8 bd dc a1 7f bd ba 81 f0 3d 3e 5d 3c bd
       -0.11347153 -0.06241022 0.117434934 -0.04598736
0002a0 e0 b8 7b 3d f6 96 a1 3d 24 37 21 3d 6a 06 d1 bd
       0.061455607 0.07890122 0.039359227 -0.102063015
0002b0 08 e7 08 3d 20 15 c0 3b 80 55 4e 3b 7a 6f 97 3d
       0.033423454 0.0058618933 0.0031484067 0.07394309
0002c0 e6 0b 4d bd 30 50 e0 bc 6c 9b 73 3d 80 42 fe 3a
       -0.050060175 -0.027381986 0.059474394 0.0019398481
0002d0 ac a5 61 3d d2 64 c6 bd 80 83 89 3a 68 c4 eb 3c
       0.055089638 -0.09687199 0.001049146 0.028780177
0002e0 2f 68 07 3e 8c 3d 64 3d 4c 7d b8 bc 5c b3 03 be
       0.13223337 0.05572276 -0.022520684 -0.12861389
0002f0 da d6 7c bd 25 21 99 bd 2e da bd bd 08 f0 6e bd
       -0.061728336 -0.07477025 -0.0927013 -0.05833438
000300 6a fc a7 3d 24 2a 83 3d 9c 0f 5f bd e8 24 9d 3c
       0.08202441 0.06404522 -0.054458246 0.019182637
000310 c0 5b 2b 3d 68 28 be bd 68 20 57 3d ba ba e5 3d
       0.041835546 -0.09285051 0.05252114 0.11217256
000320 3e d6 5f bd 15 08 b6 bd c0 ba 22 bb 72 55 11 bd
       -0.054647677 -0.0888826 -0.002483055 -0.035481878
000330 0c 71 07 bd 4e 9c e0 bd dc 3a af bc b8 8b d4 bd
       -0.033066794 -0.10967313 -0.021390371 -0.10378212
000340 d7 63 f1 bd 57 b5 99 bd cf 19 0c be 78 6c 8f bd
       -0.11786621 -0.07505291 -0.1368172 -0.07003111
000350 e6 48 a4 bd 70 79 d2 bd 40 d8 19 3b 40 0c 67 3c
       -0.08021717 -0.102770686 0.0023474842 0.014102042
000360 e6 f6 af 3d c4 44 c0 bd 90 8b ea bd 0e 59 d8 3d
       0.08592014 -0.09388116 -0.11452401 0.10563861
000370 fc 1c 94 bd c0 05 df bd c6 5e 29 bd fe 5d 0e bd
       -0.07232091 -0.108897686 -0.04135015 -0.034757607
000380 fa 40 0b bd 09 ea 0d 3e c8 33 ca bc f4 42 d9 bd
       -0.033997513 0.13858809 -0.024682894 -0.106084734
000390 94 f4 8a 3d 32 a3 de 3d e0 70 c8 3c 05 ee 06 3e
       0.06784931 0.10870971 0.024467885 0.13176735
0003a0 26 c0 cf bd f5 42 05 3e c0 81 4f 3b 37 10 b0 bd
       -0.10144071 0.13013823 0.003166303 -0.08596843
0003b0 84 19 29 bd 8b 13 06 3e 04 11 b4 bd 7c 4b 42 bd
       -0.0412841 0.13093393 -0.08792308 -0.04743527
0003c0 4c 96 92 3d 2c 1e 42 bd e2 9e 9a 3d 8c 93 82 3d
       0.07157573 -0.047392055 0.07549836 0.063757986
0003d0 8e 04 aa 3d 4a e9 05 bd 17 08 d6 bd ac 0f d1 bd
       0.0830165 -0.032693185 -0.10450762 -0.10208067
0003e0 60 59 75 bc 6e 53 9f bd 80 8a a6 3a b8 68 a7 bd
       -0.014974922 -0.07779585 0.0012706071 -0.081742704
0003f0 d2 83 c5 bd b6 41 01 be b0 1c 4e 3d 38 ef bc 3c
       -0.09644283 -0.12622723 0.050320327 0.023063287

sequential/conv2d_1/Conv2D f4 [64]
000000 00 00 00 00 00 00 00 00 00 00 00 00 00 00 00 00
       0.0 0.0 0.0 0.0
000010 00 00 00 00 00 00 00 00 00 00 00 00 00 00 00 00
       0.0 0.0 0.0 0.0
000020 00 00 00 00 00 00 00 00 00 00 00 00 00 00 00 00
       0.0 0.0 0.0 0.0
000030 00 00 00 00 00 00 00 00 00 00 00 00 00 00 00 00
       0.0 0.0 0.0 0.0
000040 00 00 00 00 00 00 00 00 00 00 00 00 00 00 00 00
       0.0 0.0 0.0 0.0
000050 00 00 00 00 00 00 00 00 00 00 00 00 00 00 00 00
       0.0 0.0 0.0 0.0
000060 00 00 00 00 00 00 00 00 00 00 00 00 00 00 00 00
       0.0 0.0 0.0 0.0
000070 00 00 00 00 00 00 00 00 00 00 00 00 00 00 00 00
       0.0 0.0 0.0 0.0
000080 00 00 00 00 00 00 00 00 00 00 00 00 00 00 00 00
       0.0 0.0 0.0 0.0
000090 00 00 00 00 00 00 00 00 00 00 00 00 00 00 00 00
       0.0 0.0 0.0 0.0
0000a0 00 00 00 00 00 00 00 00 00 00 00 00 00 00 00 00
       0.0 0.0 0.0 0.0
0000b0 00 00 00 00 00 00 00 00 00 00 00 00 00 00 00 00
       0.0 0.0 0.0 0.0
0000c0 00 00 00 00 00 00 00 00 00 00 00 00 00 00 00 00
       0.0 0.0 0.0 0.0
0000d0 00 00 00 00 00 00 00 00 00 00 00 00 00 00 00 00
       0.0 0.0 0.0 0.0
0000e0 00 00 00 00 00 00 00 00 00 00 00 00 00 00 00 00
       0.0 0.0 0.0 0.0
0000f0 00 00 00 00 00 00 00 00 00 00 00 00 00 00 00 00
       0.0 0.0 0.0 0.0

sequential/conv2d_1/Conv2D1 f4 [64, 3, 3, 32]
000000 56 f5 d6 bc 7a 9d 29 3d 16 f3 55 3d 00 ea e4 bc
       -0.026240032 0.041409947 0.052233778 -0.027943611
000010 ac 06 ba 3c 3a 38 14 3d 30 29 5a bd 76 3a 4f 3d
       0.02270826 0.036186434 -0.053261936 0.050592862
000020 14 a1 ab 3c e3 73 88 3d 34 40 a4 bc 89 46 a1 3d
       0.020950831 0.06662729 -0.020050146 0.07874782
000030 b6 3d 08 3d 20 e4 28 bd 86 cd 4a bd b0 7b 5a bd
       0.033261977 -0.041233182 -0.04951241 -0.053340614
000040 75 9a 80 3d 06 54 6f bd 00 6f 4a bd 98 e3 26 bc
       0.0627946 -0.05842974 -0.049422264 -0.0101860985
000050 ac 5d 88 bc 0c 85 c1 3c 76 3f 58 bd da 98 70 3d
       -0.016646229 0.023623012 -0.052794896 0.05873952
000060 5b 80 5a bd a8 8f 9d bd c3 66 85 bd f2 e3 57 3d
       -0.053345066 -0.07693416 -0.06513741 0.05270762
000070 a6 1f 47 3d 1a 98 2d 3d 66 9c 0b bd e8 ce 13 3c
       0.048614167 0.042381383 -0.0340847 0.009021498
000080 46 c3 9d bd 4c 61 8f bc 60 10 6b bb e0 3e 9c 3c
       -0.07703261 -0.01750245 -0.0035867915 0.01907295
000090 9b a3 8f 3d 13 7f 9b bd 16 e0 54 bd 7a 32 3e 3d
       0.07013627 -0.07592597 -0.051971518 0.046434857
0000a0 20 f9 39 bd f4 a2 b4 3c 7b 39 63 bd 5a 87 13 3d
       -0.0454036 0.022050358 -0.05547474 0.036017753
0000b0 54 b9 e1 3c 80 4f 3f 3c 28 09 a7 bd cc 71 8c bc
       0.027554192 0.011676669 -0.08156043 -0.017144106
0000c0 e3 d1 83 bd 08 ef 9c bd 16 cc 08 bd f0 6d aa bd
       -0.06436517 -0.07662779 -0.033397757 -0.0832175
0000d0 26 66 50 3d ba 41 71 3d b3 6e 90 bd 60 ff 48 bd
       0.050878666 0.058900572 -0.07052364 -0.04907167
0000e0 b3 f2 a6 bd 73 28 8e bd 90 1a 15 3d 94 38 b8 3c
       -0.0815176 -0.06941309 0.036402285 0.022487916
0000f0 6b ff 5b bd 9e 4e 87 bd 86 5a 20 bd 20 24 5a bd
       -0.053710382 -0.06606792 -0.03914883 -0.053257108
000100 93 16 9e bd 60 5b e7 bc 58 b0 32 3c 20 22 fe bc
       -0.077191494 -0.028241813 0.010906301 -0.031022131
000110 6b ab 25 bd 93 eb 91 3d 80 cb a2 bd 05 5a 83 3d
       -0.04044668 0.0712501 -0.07948971 0.06413654
000120 80 3a 97 3b ac 6c 98 3c 2c a6 d8 3c cc 31 e6 bc
       0.004615128 0.018606506 0.026446424 -0.028099917
000130 20 74 b3 3c fa 10 0b 3d fb f3 3d bd cc f8 a5 3c
       0.021905959 0.033951737 -0.046375256 0.020260237
000140 60 ba c9 3c c6 6d 8a bd 58 d8 30 bc 66 41 55 bd
       0.024625003 -0.06759219 -0.010793768 -0.052064322
000150 e6 a7 5d 3d 56 95 98 bd d8 24 5a bc a0 13 3b bb
       0.0541152 -0.074503586 -0.013314448 -0.0028545633
000160 00 b8 9b 3c 2c 3b f2 bc 96 9e 51 bd 7b 07 67 bd
       0.019008636 -0.029569231 -0.05117663 -0.05640362
000170 d0 bf 86 bb 26 37 10 3d 00 11 77 3c 80 a1 43 bd
       -0.0041122213 0.035208844 0.015079737 -0.04776144
000180 6c a9 8c bc 9b 28 83 bd 8b 36 08 bd c3 71 95 3d
       -0.01717063 -0.06404229 -0.03325514 0.07297089
000190 26 f4 3b 3d 76 dd ab bc 40 b4 d3 bc 76 11 2c bd
       0.045887135 -0.020979624 -0.025842786 -0.04200884
0001a0 26 b6 21 bd 06 a8 7b 3d 42 d2 72 3d 36 4f fd bc
       -0.03948035 0.061439537 0.05928255 -0.03092156
0001b0 52 8c 7d 3d ca 53 46 3d 36 15 0a 3d 80 40 3d 3c
       0.061901398 0.04841975 0.033711635 0.0115510225
0001c0 c2 c6 68 3d fb df 8e 3d 96 9a 5d bd 0b 6b 61 bd
       0.056830175 0.06976315 -0.054102503 -0.055033725
0001d0 a6 f3 73 3d 63 51 84 3d 34 3d 9e bc 8b 7f 14 bd
       0.059558533 0.06460836 -0.019316293 -0.036254447
0001e0 92 f3 79 3d 5a 70 73 3d e0 69 84 bd 6b 5d 5f bd
       0.061023302 0.05943332 -0.064655066 -0.05453245
0001f0 be db 90 bd 0b 37 84 3d f6 8e 38 bd 7b 2c 91 3d
       -0.070731625 0.06455811 -0.045058213 0.07088562
000200 b0 b0 93 bb e0 c7 a1 3c e6 98 70 3d 40 f3 41 3c
       -0.004507147 0.019748628 0.058739565 0.0118377805
000210 3d c0 a6 3d 0b 8d 68 bd a0 23 fe 3c 02 33 75 3d
       0.08142135 -0.056775134 0.031022847 0.059863098
000220 46 e6 2c 3d 56 fd b9 bc 60 88 b9 bc 94 64 e4 3c
       0.042211793 -0.022703808 -0.022648036 0.02787999
000230 f6 24 74 3d b0 7a c6 3b 12 85 7a 3d 94 ee 9d bc
       0.05960556 0.006057106 0.061162062 -0.019278802
000240 b0 24 83 bd 7e c8 8f bd f5 bc 92 3d 0c 35 c1 3c
       -0.06403482 -0.07020663 0.07164947 0.023584865
000250 02 c3 47 3d 40 4d 04 bc ac 68 de bc 0a 2f 25 3d
       0.04876996 -0.008075058 -0.02714952 0.040328063
000260 e0 de a1 3c 0e 7a 9e bd 26 91 7c 3d a5 1f 80 3d
       0.019759595 -0.07738124 0.06166186 0.06256036
000270 a0 f7 c4 bc 48 52 aa bd aa cd 34 3d 7b 86 7d bd
       -0.024043858 -0.08316475 0.04414145 -0.06189583
000280 5b 49 81 3d f0 9a 34 bd 60 8b 1e bb 7b 8f 1d bd
       0.063128196 -0.044093072 -0.002419196 -0.03846691
000290 a0 05 4b 3b 80 73 f3 bc db 3c 07 bd 7a c9 71 3d
       0.0030978695 -0.02971816 -0.03301702 0.059030034
0002a0 1b b6 56 bd d6 05 73 3d 65 b5 8e 3d 40 37 41 bc
       -0.052419763 0.059331737 0.06968192 -0.011792958
0002b0 48 25 9f bd fa f9 75 3d 00 3b f8 3c 9d 76 a6 3d
       -0.07770783 0.06005285 0.03030157 0.081280924
0002c0 0c 7b 96 bc b0 11 e9 bb a0 e3 0e 3b 50 e3 8e bb
       -0.01836922 -0.007112704 0.0021803156 -0.004360594
0002d0 b2 d6 63 3d 1d 2f a9 3d ec 8b cc bc 1b 94 9c bd
       0.05562467 0.08260939 -0.024969064 -0.076454364
0002e0 fb 0b 11 bd 7d 66 86 3d 80 8d 5c ba ea 05 43 3d
       -0.035411816 0.06562517 -0.0008413419 0.047613062
0002f0 00 96 1b bc 96 93 5e bd a6 c7 3f bd 7b 8e 17 bd
       -0.009496212 -0.054339968 -0.04682126 -0.037001114
000300 f9 04 88 3d 98 0d 6e bc 58 f2 7e bc a9 4c a4 3d
       0.066415735 -0.014529608 -0.015560709 0.08022434
000310 cd 80 8a 3d 3a 37 72 3d b0 99 b5 bb a6 df 23 bd
       0.06762848 0.0591347 -0.0055420026 -0.04000821
000320 a0 78 93 3c f6 f7 95 bd 2b e1 a7 3d b2 0d 7b 3d
       0.018001854 -0.073226854 0.08197244 0.061292358
000330 49 05 8c 3d 0a 16 13 3d 2c 4a a1 bc f4 68 ee 3c
       0.068369456 0.03590969 -0.019688688 0.02910278
000340 f0 8e 5e bd c0 a4 84 ba 15 18 a7 3d c8 17 90 bd
       -0.054335535 -0.00101199 0.0815889 -0.07035786
000350 00 05 88 39 30 a9 bb bb 4c 1f ac bc 83 13 a1 bd
       0.00025943667 -0.005726956 -0.021011017 -0.0786505
000360 be 9e a6 bd a8 c2 54 bc 76 5c 6a 3d 3b 3c a3 bd
       -0.081357464 -0.012985863 0.057217084 -0.079704724
000370 d0 8a 90 bd 70 d0 54 bd cb 9f a8 bd bb 4c 73 bd
       -0.070577264 -0.051956594 -0.08233603 -0.059399348
000380 b6 c7 a3 bd ca 7e 78 3d 40 48 2d bd 30 dc b8 bb
       -0.07997076 0.06066779 -0.04230523 -0.005641483
000390 e0 ab a5 3c 9b 95 97 3d ce 6f 89 bd 18 e1 03 bc
       0.020223558 0.07401582 -0.06710778 -0.008049272
0003a0 68 8a 2e 3c a0 1c 50 bd 96 fa 2a 3d aa bf 71 3d
       0.010653116 -0.05080855 0.041742884 0.059020676
0003b0 00 28 cf ba d6 44 01 bd db 2d 13 bd 82 27 2f 3d
       -0.0015804768 -0.031559788 -0.035932403 0.042762287
0003c0 76 bc 5d bd a8 32 64 3c 00 70 64 3c 00 8a 52 b9
       -0.05413481 0.013928093 0.0139427185 -0.0002007857
0003d0 50 8f f6 3b 22 af 5d 3d b2 6e 38 3d 90 e7 4c bd
       0.0075244084 0.054122098 0.045027442 -0.050025523
0003e0 98 76 31 3c d2 8e 5c 3d e6 7e 71 3d 02 0f 3c 3d
       0.010831498 0.05384714 0.05895891 0.04591275
0003f0 ea 29 75 3d 60 13 77 bb 28 f2 2b bc b0 c8 6b bd
       0.059854425 -0.0037700757 -0.010494746 -0.057564437
