tests/test_resources/models/simple_3_layers_model.tflite (tflite, 1512 bytes, 2 tensors)

sequential/dense_1/MatMul i1 [16, 1] scale=0.004247953 zero_point=0
000000 54 ea 81 72 e3 bd a2 92 bf c8 96 b7 9b aa a8 73
       0.35682806 -0.09345497 -0.53949004 0.48426667 -0.12319064 -0.28461286 -0.3993076 -0.46727484 -0.27611697 -0.23788539 -0.45028305 -0.3101006 -0.42904326 -0.36532396 -0.3738199 0.4885146

sequential/dense_2/MatMul i1 [1, 16] scale=0.003826992 zero_point=0
000000 79 c9 31 81 3b 08 ac 34 3b 32 50 2a f8 84 e1 9f
       0.463066 -0.21048455 0.1875226 -0.48602796 0.22579253 0.030615935 -0.3214673 0.19900358 0.22579253 0.1913496 0.30615935 0.16073366 -0.030615935 -0.474547 -0.11863675 -0.3712182
