tests/test_resources/models/simple_3_layers_model.tflite (tflite, 1432 bytes, 2 tensors)

sequential/dense_1/MatMul i1 [16, 1] scale=0.003903873 zero_point=0
0	0xa3	-0.3630602
1	0x5c	0.3591563
2	0x93	-0.42552215
3	0xea	-0.085885204
4	0x18	0.09369295
5	0xd8	-0.15615492
6	0xb9	-0.27717498
7	0x93	-0.42552215
8	0x4e	0.3045021
9	0xeb	-0.08198133
10	0x1c	0.109308444
11	0xe5	-0.10540457
12	0x81	-0.49579188
13	0xcc	-0.2030014
14	0xd5	-0.16786654
15	0xd4	-0.17177041

sequential/dense_2/MatMul i1 [1, 16] scale=0.0045488696 zero_point=0
0	0x24	0.1637593
1	0x78	0.54586434
2	0x01	0.0045488696
3	0x98	-0.47308242
4	0xdb	-0.16830817
5	0x6f	0.50492454
6	0x3a	0.26383445
7	0xee	-0.08187965
8	0x1b	0.122819476
9	0x29	0.18650365
10	0xf7	-0.040939827
11	0xf6	-0.045488697
12	0xc8	-0.2547367
13	0x7f	0.57770646
14	0x93	-0.49582678
15	0x72	0.51857114
