tests/test_resources/models/simple_3_layers_model.tflite (tflite, 1432 bytes, 2 tensors)

sequential/dense_1/MatMul i1 [16, 1] scale=0.0043305093 zero_point=0
00000000: c17e 0476 6079 e0e4 9153 8bcf b904 7f7f
-0.27282208 0.54564416 0.017322037 0.5110001 0.4157289 0.52399164 -0.1385763 -0.121254265
-0.48068655 0.35943228 -0.5066696 -0.21219496 -0.30746615 0.017322037 0.5499747 0.5499747

sequential/dense_2/MatMul i1 [1, 16] scale=0.004451654 zero_point=0
00000000: 3460 de8f efb8 44cc dd0d 6b20 a466 7f59
0.23148601 0.42735878 -0.15135624 -0.5030369 -0.07567812 -0.3205191 0.30271247 -0.23148601
-0.15580788 0.057871502 0.47632697 0.14245293 -0.40955216 0.4540687 0.56536007 0.3961972
