tests/test_resources/models/simple_3_layer_model.tflite (tflite, 1752 bytes, 3 tensors)

sequential/dense_1/BiasAdd/ReadVariableOp/resource f4 [16]
00000000: b283 7fbc ef18 823d 6171 adbb 1501 47bb
00000010: 06f7 633b febe 9a3c ab9c d13b 728f 813d
00000020: d025 0fbb 2282 90bb 6067 403d 361f d83a
00000030: db0d 90bc 2467 2bbd a0d6 bf3b 9700 33bd
-0.015595363 0.06352412 -0.005293057 -0.0030365635 0.0034784689 0.0188899 0.00639685 0.06326188
-0.0021842606 -0.0044100443 0.046973586 0.0016488794 -0.017584732 -0.04184641 0.0058544427 -0.043701734

sequential/dense_1/MatMul f4 [16, 1]
00000000: bcf9 cfbb 1a3b dbbe fdcb 0d3f e14c cb3e
00000010: eb52 e63d 995d 88be 48e1 933e 01d5 b7be
00000020: b0db d43a ef1e 4b3e 150c a3bd b3ee 0a3f
00000030: 7a3f e43e a5d6 92be 23c9 6f3e d940 03bf
-0.0063469093 -0.42818528 0.55389386 0.3970709 0.11246284 -0.2663391 0.28882813 -0.35904697
0.0016239788 0.19836019 -0.07961289 0.54270476 0.4457968 -0.28679386 0.23416571 -0.51270825

sequential/dense_2/MatMul f4 [1, 16]
00000000: ccb9 863e 6a18 10bf 8b3d 05be d36c 94bd
00000010: 1ff3 933e 325b 35be 8acb 083f 344b 0ebf
00000020: a5d1 98bd 9acb ecbd 649d ccbe b802 8d3d
00000030: 01e5 f0be 4a7a d63e c5d5 f93e f113 d83e
0.26313627 -0.5628725 -0.13011758 -0.07247319 0.28896424 -0.1771057 0.53435576 -0.555835
-0.074618615 -0.115622714 -0.3996383 0.06885284 -0.47049716 0.41890174 0.48795906 0.42202714
